…
    "model                       = Seq2Seq(in_size, embed_size, hidden_size, dropout_val=dropout_val, batch_size=batch_size)\n",
    "model                       = nn.DataParallel( model ).cuda()"
   ]
  },
  {
   "cell_type": "code",
   "execution_count": 35,
   "metadata": {},
   "outputs": [
    {
     "name": "stdout",
     "output_type": "stream",
     "text": [
      "A summary of the model, where we can see the shape of each layer : \n",
      "DataParallel(\n",
      "  (module): Seq2Seq(\n",
      "    (encoder): CoordinatesTransformer(\n",
      "      (linear_mapper): Sequential(\n",
      "        (0): Linear(in_features=2, out_features=32, bias=True)\n",
      "        (1): ReLU()\n",
      "        (2): Linear(in_features=32, out_features=64, bias=True)\n",
      "        (3): ReLU()\n",
      "        (4): Linear(in_features=64, out_features=128, bias=True)\n",
      "        (5): ReLU()\n",
      "        (6): Linear(in_features=128, out_features=256, bias=True)\n",
      "        (7): ReLU()\n",
      "      )\n",
      "      (self_attention): EncoderSelfAttention(\n",
      "        (encoder): ModuleList(\n",
      "          (0): MultiHeadAttention(\n",
      "            (attention): ScaledDotProductAttention(\n",
      "              (fc_q): Linear(in_features=256, out_features=512, bias=True)\n",
      "              (fc_k): Linear(in_features=256, out_features=512, bias=True)\n",
      "              (fc_v): Linear(in_features=256, out_features=512, bias=True)\n",
      "              (fc_o): Linear(in_features=512, out_features=256, bias=True)\n",
      "            )\n",
      "            (dropout): Dropout(p=0.2, inplace=False)\n",
      "            (layer_norm): LayerNorm((256,), eps=1e-05, elementwise_affine=True)\n",
      "            (fc): Sequential(\n",
      "              (0): Linear(in_features=256, out_features=1024, bias=True)\n",
      "              (1): ReLU(inplace=True)\n",
      "              (2): Dropout(p=0.2, inplace=False)\n",
      "              (3): Linear(in_features=1024, out_features=256, bias=True)\n",
      "            )\n",
      "          )\n",
      "          (1): MultiHeadAttention(\n",
      "            (attention): ScaledDotProductAttention(\n",
      "              (fc_q): Linear(in_features=256, out_features=512, bias=True)\n",
      "              (fc_k): Linear(in_features=256, out_features=512, bias=True)\n",
      "              (fc_v): Linear(in_features=256, out_features=512, bias=True)\n",
      "              (fc_o): Linear(in_features=512, out_features=256, bias=True)\n",
      "            )\n",
      "            (dropout): Dropout(p=0.2, inplace=False)\n",
      "            (layer_norm): LayerNorm((256,), eps=1e-05, elementwise_affine=True)\n",
      "            (fc): Sequential(\n",
      "              (0): Linear(in_features=256, out_features=1024, bias=True)\n",
      "              (1): ReLU(inplace=True)\n",
      "              (2): Dropout(p=0.2, inplace=False)\n",
      "              (3): Linear(in_features=1024, out_features=256, bias=True)\n",
      "            )\n",
      "          )\n",
      "          (2): MultiHeadAttention(\n",
      "            (attention): ScaledDotProductAttention(\n",
      "              (fc_q): Linear(in_features=256, out_features=512, bias=True)\n",
      "              (fc_k): Linear(in_features=256, out_features=512, bias=True)\n",
      "              (fc_v): Linear(in_features=256, out_features=512, bias=True)\n",
      "              (fc_o): Linear(in_features=512, out_features=256, bias=True)\n",
      "            )\n",
      "            (dropout): Dropout(p=0.2, inplace=False)\n",
      "            (layer_norm): LayerNorm((256,), eps=1e-05, elementwise_affine=True)\n",
      "            (fc): Sequential(\n",
      "              (0): Linear(in_features=256, out_features=1024, bias=True)\n",
      "              (1): ReLU(inplace=True)\n",
      "              (2): Dropout(p=0.2, inplace=False)\n",
      "              (3): Linear(in_features=1024, out_features=256, bias=True)\n",
      "            )\n",
      "          )\n",
      "          (3): MultiHeadAttention(\n",
      "            (attention): ScaledDotProductAttention(\n",
      "              (fc_q): Linear(in_features=256, out_features=512, bias=True)\n",
      "              (fc_k): Linear(in_features=256, out_features=512, bias=True)\n",
      "              (fc_v): Linear(in_features=256, out_features=512, bias=True)\n",
      "              (fc_o): Linear(in_features=512, out_features=256, bias=True)\n",
      "            )\n",
      "            (dropout): Dropout(p=0.2, inplace=False)\n",
      "            (layer_norm): LayerNorm((256,), eps=1e-05, elementwise_affine=True)\n",
      "            (fc): Sequential(\n",
      "              (0): Linear(in_features=256, out_features=1024, bias=True)\n",
      "              (1): ReLU(inplace=True)\n",
      "              (2): Dropout(p=0.2, inplace=False)\n",
      "              (3): Linear(in_features=1024, out_features=256, bias=True)\n",
      "            )\n",
      "          )\n",
      "          (4): MultiHeadAttention(\n",
      "            (attention): ScaledDotProductAttention(\n",
      "              (fc_q): Linear(in_features=256, out_features=512, bias=True)\n",
      "              (fc_k): Linear(in_features=256, out_features=512, bias=True)\n",
      "              (fc_v): Linear(in_features=256, out_features=512, bias=True)\n",
      "              (fc_o): Linear(in_features=512, out_features=256, bias=True)\n",
      "            )\n",
      "            (dropout): Dropout(p=0.2, inplace=False)\n",
      "            (layer_norm): LayerNorm((256,), eps=1e-05, elementwise_affine=True)\n",
      "            (fc): Sequential(\n",
      "              (0): Linear(in_features=256, out_features=1024, bias=True)\n",
      "              (1): ReLU(inplace=True)\n",
      "              (2): Dropout(p=0.2, inplace=False)\n",
      "              (3): Linear(in_features=1024, out_features=256, bias=True)\n",
      "            )\n",
      "          )\n",
      "          (5): MultiHeadAttention(\n",
      "            (attention): ScaledDotProductAttention(\n",
      "              (fc_q): Linear(in_features=256, out_features=512, bias=True)\n",
      "              (fc_k): Linear(in_features=256, out_features=512, bias=True)\n",
      "              (fc_v): Linear(in_features=256, out_features=512, bias=True)\n",
      "              (fc_o): Linear(in_features=512, out_features=256, bias=True)\n",
      "            )\n",
      "            (dropout): Dropout(p=0.2, inplace=False)\n",
      "            (layer_norm): LayerNorm((256,), eps=1e-05, elementwise_affine=True)\n",
      "            (fc): Sequential(\n",
      "              (0): Linear(in_features=256, out_features=1024, bias=True)\n",
      "              (1): ReLU(inplace=True)\n",
      "              (2): Dropout(p=0.2, inplace=False)\n",
      "              (3): Linear(in_features=1024, out_features=256, bias=True)\n",
      "            )\n",
      "          )\n",
      "        )\n",
      "      )\n",
      "      (pool): AdaptiveAvgPool2d(output_size=(1, 256))\n",
      "      (fc_out): Sequential(\n",
      "        (0): Linear(in_features=256, out_features=256, bias=True)\n",
      "        (1): ReLU()\n",
      "        (2): Dropout(p=0.2, inplace=False)\n",
      "      )\n",
      "      (embedder_out): Sequential(\n",
      "        (0): Linear(in_features=2048, out_features=256, bias=True)\n",
      "        (1): ReLU()\n",
      "        (2): Dropout(p=0.2, inplace=False)\n",
      "        (3): Linear(in_features=256, out_features=256, bias=True)\n",
      "        (4): ReLU()\n",
      "      )\n",
      "    )\n",
      "    (decoder): DecoderTransformer(\n",
      "      (embedder_rho): Linear(in_features=2, out_features=64, bias=True)\n",
      "      (fC_mu): Sequential(\n",
      "        (0): Linear(in_features=514, out_features=128, bias=True)\n",
      "        (1): ReLU()\n",
      "        (2): Dropout(p=0.2, inplace=False)\n",
      "        (3): Linear(in_features=128, out_features=4, bias=True)\n",
      "      )\n",
      "      (dropout): Dropout(p=0.2, inplace=False)\n",
      "      (FC_dim_red): Sequential(\n",
      "        (0): MaxPool2d(kernel_size=3, stride=3, padding=1, dilation=1, ceil_mode=False)\n",
      "        (1): Flatten(start_dim=1, end_dim=-1)\n",
      "        (2): Linear(in_features=7396, out_features=514, bias=True)\n",
      "        (3): ReLU()\n",
      "      )\n",
      "      (embedding): Linear(in_features=64, out_features=512, bias=True)\n",
      "      (layers): ModuleList(\n",
      "        (0): DecoderLayer(\n",
      "          (self_attn): MultiheadAttention(\n",
      "            (out_proj): NonDynamicallyQuantizableLinear(in_features=512, out_features=512, bias=True)\n",
      "          )\n",
      "          (norm1): LayerNorm((512,), eps=1e-05, elementwise_affine=True)\n",
      "          (norm2): LayerNorm((512,), eps=1e-05, elementwise_affine=True)\n",
      "          (feed_forward): Linear(in_features=512, out_features=512, bias=True)\n",
      "        )\n",
      "        (1): DecoderLayer(\n",
      "          (self_attn): MultiheadAttention(\n",
      "            (out_proj): NonDynamicallyQuantizableLinear(in_features=512, out_features=512, bias=True)\n",
      "          )\n",
      "          (norm1): LayerNorm((512,), eps=1e-05, elementwise_affine=True)\n",
      "          (norm2): LayerNorm((512,), eps=1e-05, elementwise_affine=True)\n",
      "          (feed_forward): Linear(in_features=512, out_features=512, bias=True)\n",
      "        )\n",
      "        (2): DecoderLayer(\n",
      "          (self_attn): MultiheadAttention(\n",
      "            (out_proj): NonDynamicallyQuantizableLinear(in_features=512, out_features=512, bias=True)\n",
      "          )\n",
      "          (norm1): LayerNorm((512,), eps=1e-05, elementwise_affine=True)\n",
      "          (norm2): LayerNorm((512,), eps=1e-05, elementwise_affine=True)\n",
      "          (feed_forward): Linear(in_features=512, out_features=512, bias=True)\n",
      "        )\n",
      "        (3): DecoderLayer(\n",
      "          (self_attn): MultiheadAttention(\n",
      "            (out_proj): NonDynamicallyQuantizableLinear(in_features=512, out_features=512, bias=True)\n",
      "          )\n",
      "          (norm1): LayerNorm((512,), eps=1e-05, elementwise_affine=True)\n",
      "          (norm2): LayerNorm((512,), eps=1e-05, elementwise_affine=True)\n",
      "          (feed_forward): Linear(in_features=512, out_features=512, bias=True)\n",
      "        )\n",
      "        (4): DecoderLayer(\n",
      "          (self_attn): MultiheadAttention(\n",
      "            (out_proj): NonDynamicallyQuantizableLinear(in_features=512, out_features=512, bias=True)\n",
      "          )\n",
      "          (norm1): LayerNorm((512,), eps=1e-05, elementwise_affine=True)\n",
      "          (norm2): LayerNorm((512,), eps=1e-05, elementwise_affine=True)\n",
      "          (feed_forward): Linear(in_features=512, out_features=512, bias=True)\n",
      "        )\n",
      "        (5): DecoderLayer(\n",
      "          (self_attn): MultiheadAttention(\n",
      "            (out_proj): NonDynamicallyQuantizableLinear(in_features=512, out_features=512, bias=True)\n",
      "          )\n",
      "          (norm1): LayerNorm((512,), eps=1e-05, elementwise_affine=True)\n",
      "          (norm2): LayerNorm((512,), eps=1e-05, elementwise_affine=True)\n",
      "          (feed_forward): Linear(in_features=512, out_features=512, bias=True)\n",
      "        )\n",
      "      )\n",
      "      (output_layer): Linear(in_features=512, out_features=514, bias=True)\n",
      "    )\n",
      "    (vsn_module): _GestureTransformer(\n",
      "      (conv_model): Sequential(\n",
      "        (0): Conv2d(3, 64, kernel_size=(7, 7), stride=(2, 2), padding=(3, 3), bias=False)\n",
      "        (1): BatchNorm2d(64, eps=1e-05, momentum=0.1, affine=True, track_running_stats=True)\n",
      "        (2): ReLU(inplace=True)\n",
      "        (3): MaxPool2d(kernel_size=3, stride=2, padding=1, dilation=1, ceil_mode=False)\n",
      "        (4): Sequential(\n",
      "          (0): BasicBlock(\n",
      "            (conv1): Conv2d(64, 64, kernel_size=(3, 3), stride=(1, 1), padding=(1, 1), bias=False)\n",
      "            (bn1): BatchNorm2d(64, eps=1e-05, momentum=0.1, affine=True, track_running_stats=True)\n",
      "            (relu): ReLU(inplace=True)\n",
      "            (conv2): Conv2d(64, 64, kernel_size=(3, 3), stride=(1, 1), padding=(1, 1), bias=False)\n",
      "            (bn2): BatchNorm2d(64, eps=1e-05, momentum=0.1, affine=True, track_running_stats=True)\n",
      "          )\n",
      "          (1): BasicBlock(\n",
      "            (conv1): Conv2d(64, 64, kernel_size=(3, 3), stride=(1, 1), padding=(1, 1), bias=False)\n",
      "            (bn1): BatchNorm2d(64, eps=1e-05, momentum=0.1, affine=True, track_running_stats=True)\n",
      "            (relu): ReLU(inplace=True)\n",
      "            (conv2): Conv2d(64, 64, kernel_size=(3, 3), stride=(1, 1), padding=(1, 1), bias=False)\n",
      "            (bn2): BatchNorm2d(64, eps=1e-05, momentum=0.1, affine=True, track_running_stats=True)\n",
      "          )\n",
      "        )\n",
      "        (5): Sequential(\n",
      "          (0): BasicBlock(\n",
      "            (conv1): Conv2d(64, 128, kernel_size=(3, 3), stride=(2, 2), padding=(1, 1), bias=False)\n",
      "            (bn1): BatchNorm2d(128, eps=1e-05, momentum=0.1, affine=True, track_running_stats=True)\n",
      "            (relu): ReLU(inplace=True)\n",
      "            (conv2): Conv2d(128, 128, kernel_size=(3, 3), stride=(1, 1), padding=(1, 1), bias=False)\n",
      "            (bn2): BatchNorm2d(128, eps=1e-05, momentum=0.1, affine=True, track_running_stats=True)\n",
      "            (downsample): Sequential(\n",
      "              (0): Conv2d(64, 128, kernel_size=(1, 1), stride=(2, 2), bias=False)\n",
      "              (1): BatchNorm2d(128, eps=1e-05, momentum=0.1, affine=True, track_running_stats=True)\n",
      "            )\n",
      "          )\n",
      "          (1): BasicBlock(\n",
      "            (conv1): Conv2d(128, 128, kernel_size=(3, 3), stride=(1, 1), padding=(1, 1), bias=False)\n",
      "            (bn1): BatchNorm2d(128, eps=1e-05, momentum=0.1, affine=True, track_running_stats=True)\n",
      "            (relu): ReLU(inplace=True)\n",
      "            (conv2): Conv2d(128, 128, kernel_size=(3, 3), stride=(1, 1), padding=(1, 1), bias=False)\n",
      "            (bn2): BatchNorm2d(128, eps=1e-05, momentum=0.1, affine=True, track_running_stats=True)\n",
      "          )\n",
      "        )\n",
      "        (6): Sequential(\n",
      "          (0): BasicBlock(\n",
      "            (conv1): Conv2d(128, 256, kernel_size=(3, 3), stride=(2, 2), padding=(1, 1), bias=False)\n",
      "            (bn1): BatchNorm2d(256, eps=1e-05, momentum=0.1, affine=True, track_running_stats=True)\n",
      "            (relu): ReLU(inplace=True)\n",
      "            (conv2): Conv2d(256, 256, kernel_size=(3, 3), stride=(1, 1), padding=(1, 1), bias=False)\n",
      "            (bn2): BatchNorm2d(256, eps=1e-05, momentum=0.1, affine=True, track_running_stats=True)\n",
      "            (downsample): Sequential(\n",
      "              (0): Conv2d(128, 256, kernel_size=(1, 1), stride=(2, 2), bias=False)\n",
      "              (1): BatchNorm2d(256, eps=1e-05, momentum=0.1, affine=True, track_running_stats=True)\n",
      "            )\n",
      "          )\n",
      "          (1): BasicBlock(\n",
      "            (conv1): Conv2d(256, 256, kernel_size=(3, 3), stride=(1, 1), padding=(1, 1), bias=False)\n",
      "            (bn1): BatchNorm2d(256, eps=1e-05, momentum=0.1, affine=True, track_running_stats=True)\n",
      "            (relu): ReLU(inplace=True)\n",
      "            (conv2): Conv2d(256, 256, kernel_size=(3, 3), stride=(1, 1), padding=(1, 1), bias=False)\n",
      "            (bn2): BatchNorm2d(256, eps=1e-05, momentum=0.1, affine=True, track_running_stats=True)\n",
      "          )\n",
      "        )\n",
      "        (7): Sequential(\n",
      "          (0): BasicBlock(\n",
      "            (conv1): Conv2d(256, 512, kernel_size=(3, 3), stride=(2, 2), padding=(1, 1), bias=False)\n",
      "            (bn1): BatchNorm2d(512, eps=1e-05, momentum=0.1, affine=True, track_running_stats=True)\n",
      "            (relu): ReLU(inplace=True)\n",
      "            (conv2): Conv2d(512, 512, kernel_size=(3, 3), stride=(1, 1), padding=(1, 1), bias=False)\n",
      "            (bn2): BatchNorm2d(512, eps=1e-05, momentum=0.1, affine=True, track_running_stats=True)\n",
      "            (downsample): Sequential(\n",
      "              (0): Conv2d(256, 512, kernel_size=(1, 1), stride=(2, 2), bias=False)\n",
      "              (1): BatchNorm2d(512, eps=1e-05, momentum=0.1, affine=True, track_running_stats=True)\n",
      "            )\n",
      "          )\n",
      "          (1): BasicBlock(\n",
      "            (conv1): Conv2d(512, 512, kernel_size=(3, 3), stride=(1, 1), padding=(1, 1), bias=False)\n",
      "            (bn1): BatchNorm2d(512, eps=1e-05, momentum=0.1, affine=True, track_running_stats=True)\n",
      "            (relu): ReLU(inplace=True)\n",
      "            (conv2): Conv2d(512, 512, kernel_size=(3, 3), stride=(1, 1), padding=(1, 1), bias=False)\n",
      "            (bn2): BatchNorm2d(512, eps=1e-05, momentum=0.1, affine=True, track_running_stats=True)\n",
      "          )\n",
      "        )\n",
      "      )\n",
      "      (features): features_extraction(\n",
      "        (conv_model): Sequential(\n",
      "          (0): Conv2d(3, 64, kernel_size=(7, 7), stride=(2, 2), padding=(3, 3), bias=False)\n",
      "          (1): BatchNorm2d(64, eps=1e-05, momentum=0.1, affine=True, track_running_stats=True)\n",
      "          (2): ReLU(inplace=True)\n",
      "          (3): MaxPool2d(kernel_size=3, stride=2, padding=1, dilation=1, ceil_mode=False)\n",
      "          (4): Sequential(\n",
      "            (0): BasicBlock(\n",
      "              (conv1): Conv2d(64, 64, kernel_size=(3, 3), stride=(1, 1), padding=(1, 1), bias=False)\n",
      "              (bn1): BatchNorm2d(64, eps=1e-05, momentum=0.1, affine=True, track_running_stats=True)\n",
      "              (relu): ReLU(inplace=True)\n",
      "              (conv2): Conv2d(64, 64, kernel_size=(3, 3), stride=(1, 1), padding=(1, 1), bias=False)\n",
      "              (bn2): BatchNorm2d(64, eps=1e-05, momentum=0.1, affine=True, track_running_stats=True)\n",
      "            )\n",
      "            (1): BasicBlock(\n",
      "              (conv1): Conv2d(64, 64, kernel_size=(3, 3), stride=(1, 1), padding=(1, 1), bias=False)\n",
      "              (bn1): BatchNorm2d(64, eps=1e-05, momentum=0.1, affine=True, track_running_stats=True)\n",
      "              (relu): ReLU(inplace=True)\n",
      "              (conv2): Conv2d(64, 64, kernel_size=(3, 3), stride=(1, 1), padding=(1, 1), bias=False)\n",
      "              (bn2): BatchNorm2d(64, eps=1e-05, momentum=0.1, affine=True, track_running_stats=True)\n",
      "            )\n",
      "          )\n",
      "          (5): Sequential(\n",
      "            (0): BasicBlock(\n",
      "              (conv1): Conv2d(64, 128, kernel_size=(3, 3), stride=(2, 2), padding=(1, 1), bias=False)\n",
      "              (bn1): BatchNorm2d(128, eps=1e-05, momentum=0.1, affine=True, track_running_stats=True)\n",
      "              (relu): ReLU(inplace=True)\n",
      "              (conv2): Conv2d(128, 128, kernel_size=(3, 3), stride=(1, 1), padding=(1, 1), bias=False)\n",
      "              (bn2): BatchNorm2d(128, eps=1e-05, momentum=0.1, affine=True, track_running_stats=True)\n",
      "              (downsample): Sequential(\n",
      "                (0): Conv2d(64, 128, kernel_size=(1, 1), stride=(2, 2), bias=False)\n",
      "                (1): BatchNorm2d(128, eps=1e-05, momentum=0.1, affine=True, track_running_stats=True)\n",
      "              )\n",
      "            )\n",
      "            (1): BasicBlock(\n",
      "              (conv1): Conv2d(128, 128, kernel_size=(3, 3), stride=(1, 1), padding=(1, 1), bias=False)\n",
      "              (bn1): BatchNorm2d(128, eps=1e-05, momentum=0.1, affine=True, track_running_stats=True)\n",
      "              (relu): ReLU(inplace=True)\n",
      "              (conv2): Conv2d(128, 128, kernel_size=(3, 3), stride=(1, 1), padding=(1, 1), bias=False)\n",
      "              (bn2): BatchNorm2d(128, eps=1e-05, momentum=0.1, affine=True, track_running_stats=True)\n",
      "            )\n",
      "          )\n",
      "          (6): Sequential(\n",
      "            (0): BasicBlock(\n",
      "              (conv1): Conv2d(128, 256, kernel_size=(3, 3), stride=(2, 2), padding=(1, 1), bias=False)\n",
      "              (bn1): BatchNorm2d(256, eps=1e-05, momentum=0.1, affine=True, track_running_stats=True)\n",
      "              (relu): ReLU(inplace=True)\n",
      "              (conv2): Conv2d(256, 256, kernel_size=(3, 3), stride=(1, 1), padding=(1, 1), bias=False)\n",
      "              (bn2): BatchNorm2d(256, eps=1e-05, momentum=0.1, affine=True, track_running_stats=True)\n",
      "              (downsample): Sequential(\n",
      "                (0): Conv2d(128, 256, kernel_size=(1, 1), stride=(2, 2), bias=False)\n",
      "                (1): BatchNorm2d(256, eps=1e-05, momentum=0.1, affine=True, track_running_stats=True)\n",
      "              )\n",
      "            )\n",
      "            (1): BasicBlock(\n",
      "              (conv1): Conv2d(256, 256, kernel_size=(3, 3), stride=(1, 1), padding=(1, 1), bias=False)\n",
      "              (bn1): BatchNorm2d(256, eps=1e-05, momentum=0.1, affine=True, track_running_stats=True)\n",
      "              (relu): ReLU(inplace=True)\n",
      "              (conv2): Conv2d(256, 256, kernel_size=(3, 3), stride=(1, 1), padding=(1, 1), bias=False)\n",
      "              (bn2): BatchNorm2d(256, eps=1e-05, momentum=0.1, affine=True, track_running_stats=True)\n",
      "            )\n",
      "          )\n",
      "          (7): Sequential(\n",
      "            (0): BasicBlock(\n",
      "              (conv1): Conv2d(256, 512, kernel_size=(3, 3), stride=(2, 2), padding=(1, 1), bias=False)\n",
      "              (bn1): BatchNorm2d(512, eps=1e-05, momentum=0.1, affine=True, track_running_stats=True)\n",
      "              (relu): ReLU(inplace=True)\n",
      "              (conv2): Conv2d(512, 512, kernel_size=(3, 3), stride=(1, 1), padding=(1, 1), bias=False)\n",
      "              (bn2): BatchNorm2d(512, eps=1e-05, momentum=0.1, affine=True, track_running_stats=True)\n",
      "              (downsample): Sequential(\n",
      "                (0): Conv2d(256, 512, kernel_size=(1, 1), stride=(2, 2), bias=False)\n",
      "                (1): BatchNorm2d(512, eps=1e-05, momentum=0.1, affine=True, track_running_stats=True)\n",
      "              )\n",
      "            )\n",
      "            (1): BasicBlock(\n",
      "              (conv1): Conv2d(512, 512, kernel_size=(3, 3), stride=(1, 1), padding=(1, 1), bias=False)\n",
      "              (bn1): BatchNorm2d(512, eps=1e-05, momentum=0.1, affine=True, track_running_stats=True)\n",
      "              (relu): ReLU(inplace=True)\n",
      "              (conv2): Conv2d(512, 512, kernel_size=(3, 3), stride=(1, 1), padding=(1, 1), bias=False)\n",
      "              (bn2): BatchNorm2d(512, eps=1e-05, momentum=0.1, affine=True, track_running_stats=True)\n",
      "            )\n",
      "          )\n",
      "        )\n",
      "        (pooling): AdaptiveAvgPool2d(output_size=(1, 1))\n",
      "      )\n",
      "      (self_attention): EncoderSelfAttention(\n",
      "        (encoder): ModuleList(\n",
      "          (0): MultiHeadAttention(\n",
      "            (attention): ScaledDotProductAttention(\n",
      "              (fc_q): Linear(in_features=512, out_features=512, bias=True)\n",
      "              (fc_k): Linear(in_features=512, out_features=512, bias=True)\n",
      "              (fc_v): Linear(in_features=512, out_features=512, bias=True)\n",
      "              (fc_o): Linear(in_features=512, out_features=512, bias=True)\n",
      "            )\n",
      "            (dropout): Dropout(p=0.2, inplace=False)\n",
      "            (layer_norm): LayerNorm((512,), eps=1e-05, elementwise_affine=True)\n",
      "            (fc): Sequential(\n",
      "              (0): Linear(in_features=512, out_features=1024, bias=True)\n",
      "              (1): ReLU(inplace=True)\n",
      "              (2): Dropout(p=0.2, inplace=False)\n",
      "              (3): Linear(in_features=1024, out_features=512, bias=True)\n",
      "            )\n",
      "          )\n",
      "          (1): MultiHeadAttention(\n",
      "            (attention): ScaledDotProductAttention(\n",
      "              (fc_q): Linear(in_features=512, out_features=512, bias=True)\n",
      "              (fc_k): Linear(in_features=512, out_features=512, bias=True)\n",
      "              (fc_v): Linear(in_features=512, out_features=512, bias=True)\n",
      "              (fc_o): Linear(in_features=512, out_features=512, bias=True)\n",
      "            )\n",
      "            (dropout): Dropout(p=0.2, inplace=False)\n",
      "            (layer_norm): LayerNorm((512,), eps=1e-05, elementwise_affine=True)\n",
      "            (fc): Sequential(\n",
      "              (0): Linear(in_features=512, out_features=1024, bias=True)\n",
      "              (1): ReLU(inplace=True)\n",
      "              (2): Dropout(p=0.2, inplace=False)\n",
      "              (3): Linear(in_features=1024, out_features=512, bias=True)\n",
      "            )\n",
      "          )\n",
      "          (2): MultiHeadAttention(\n",
      "            (attention): ScaledDotProductAttention(\n",
      "              (fc_q): Linear(in_features=512, out_features=512, bias=True)\n",
      "              (fc_k): Linear(in_features=512, out_features=512, bias=True)\n",
      "              (fc_v): Linear(in_features=512, out_features=512, bias=True)\n",
      "              (fc_o): Linear(in_features=512, out_features=512, bias=True)\n",
      "            )\n",
      "            (dropout): Dropout(p=0.2, inplace=False)\n",
      "            (layer_norm): LayerNorm((512,), eps=1e-05, elementwise_affine=True)\n",
      "            (fc): Sequential(\n",
      "              (0): Linear(in_features=512, out_features=1024, bias=True)\n",
      "              (1): ReLU(inplace=True)\n",
      "              (2): Dropout(p=0.2, inplace=False)\n",
      "              (3): Linear(in_features=1024, out_features=512, bias=True)\n",
      "            )\n",
      "          )\n",
      "          (3): MultiHeadAttention(\n",
      "            (attention): ScaledDotProductAttention(\n",
      "              (fc_q): Linear(in_features=512, out_features=512, bias=True)\n",
      "              (fc_k): Linear(in_features=512, out_features=512, bias=True)\n",
      "              (fc_v): Linear(in_features=512, out_features=512, bias=True)\n",
      "              (fc_o): Linear(in_features=512, out_features=512, bias=True)\n",
      "            )\n",
      "            (dropout): Dropout(p=0.2, inplace=False)\n",
      "            (layer_norm): LayerNorm((512,), eps=1e-05, elementwise_affine=True)\n",
      "            (fc): Sequential(\n",
      "              (0): Linear(in_features=512, out_features=1024, bias=True)\n",
      "              (1): ReLU(inplace=True)\n",
      "              (2): Dropout(p=0.2, inplace=False)\n",
      "              (3): Linear(in_features=1024, out_features=512, bias=True)\n",
      "            )\n",
      "          )\n",
      "          (4): MultiHeadAttention(\n",
      "            (attention): ScaledDotProductAttention(\n",
      "              (fc_q): Linear(in_features=512, out_features=512, bias=True)\n",
      "              (fc_k): Linear(in_features=512, out_features=512, bias=True)\n",
      "              (fc_v): Linear(in_features=512, out_features=512, bias=True)\n",
      "              (fc_o): Linear(in_features=512, out_features=512, bias=True)\n",
      "            )\n",
      "            (dropout): Dropout(p=0.2, inplace=False)\n",
      "            (layer_norm): LayerNorm((512,), eps=1e-05, elementwise_affine=True)\n",
      "            (fc): Sequential(\n",
      "              (0): Linear(in_features=512, out_features=1024, bias=True)\n",
      "              (1): ReLU(inplace=True)\n",
      "              (2): Dropout(p=0.2, inplace=False)\n",
      "              (3): Linear(in_features=1024, out_features=512, bias=True)\n",
      "            )\n",
      "          )\n",
      "          (5): MultiHeadAttention(\n",
      "            (attention): ScaledDotProductAttention(\n",
      "              (fc_q): Linear(in_features=512, out_features=512, bias=True)\n",
      "              (fc_k): Linear(in_features=512, out_features=512, bias=True)\n",
      "              (fc_v): Linear(in_features=512, out_features=512, bias=True)\n",
      "              (fc_o): Linear(in_features=512, out_features=512, bias=True)\n",
      "            )\n",
      "            (dropout): Dropout(p=0.2, inplace=False)\n",
      "            (layer_norm): LayerNorm((512,), eps=1e-05, elementwise_affine=True)\n",
      "            (fc): Sequential(\n",
      "              (0): Linear(in_features=512, out_features=1024, bias=True)\n",
      "              (1): ReLU(inplace=True)\n",
      "              (2): Dropout(p=0.2, inplace=False)\n",
      "              (3): Linear(in_features=1024, out_features=512, bias=True)\n",
      "            )\n",
      "          )\n",
      "        )\n",
      "      )\n",
      "    )\n",
      "    (pooling): AdaptiveAvgPool1d(output_size=256)\n",
      "    (crossAttention): crossAttention(\n",
      "      (encoder): CrossAttentionLayer(\n",
      "        (encoder): Encoder(\n",
      "          (layers): ModuleList(\n",
      "            (0): EncoderLayer(\n",
      "              (src_attn): MultiHeadAttention(\n",
      "                (linears): ModuleList(\n",
      "                  (0): Linear(in_features=256, out_features=256, bias=True)\n",
      "                  (1): Linear(in_features=256, out_features=256, bias=True)\n",
      "                  (2): Linear(in_features=256, out_features=256, bias=True)\n",
      "                  (3): Linear(in_features=256, out_features=256, bias=True)\n",
      "                )\n",
      "                (dropout): Dropout(p=0.1, inplace=False)\n",
      "              )\n",
      "              (cross_attn): MultiHeadAttention(\n",
      "                (linears): ModuleList(\n",
      "                  (0): Linear(in_features=256, out_features=256, bias=True)\n",
      "                  (1): Linear(in_features=256, out_features=256, bias=True)\n",
      "                  (2): Linear(in_features=256, out_features=256, bias=True)\n",
      "                  (3): Linear(in_features=256, out_features=256, bias=True)\n",
      "                )\n",
      "                (dropout): Dropout(p=0.1, inplace=False)\n",
      "              )\n",
      "              (feed_forward): PointerwiseFeedforward(\n",
      "                (w_1): Linear(in_features=256, out_features=2048, bias=True)\n",
      "                (w_2): Linear(in_features=2048, out_features=256, bias=True)\n",
      "                (dropout): Dropout(p=0.1, inplace=False)\n",
      "              )\n",
      "              (sublayer): ModuleList(\n",
      "                (0): SubLayerConnection(\n",
      "                  (norm): LayerNorm()\n",
      "                  (dropout): Dropout(p=0.1, inplace=False)\n",
      "                )\n",
      "                (1): SubLayerConnection(\n",
      "                  (norm): LayerNorm()\n",
      "                  (dropout): Dropout(p=0.1, inplace=False)\n",
      "                )\n",
      "                (2): SubLayerConnection(\n",
      "                  (norm): LayerNorm()\n",
      "                  (dropout): Dropout(p=0.1, inplace=False)\n",
      "                )\n",
      "                (3): SubLayerConnection(\n",
      "                  (norm): LayerNorm()\n",
      "                  (dropout): Dropout(p=0.1, inplace=False)\n",
      "                )\n",
      "              )\n",
      "            )\n",
      "            (1): EncoderLayer(\n",
      "              (src_attn): MultiHeadAttention(\n",
      "                (linears): ModuleList(\n",
      "                  (0): Linear(in_features=256, out_features=256, bias=True)\n",
      "                  (1): Linear(in_features=256, out_features=256, bias=True)\n",
      "                  (2): Linear(in_features=256, out_features=256, bias=True)\n",
      "                  (3): Linear(in_features=256, out_features=256, bias=True)\n",
      "                )\n",
      "                (dropout): Dropout(p=0.1, inplace=False)\n",
      "              )\n",
      "              (cross_attn): MultiHeadAttention(\n",
      "                (linears): ModuleList(\n",
      "                  (0): Linear(in_features=256, out_features=256, bias=True)\n",
      "                  (1): Linear(in_features=256, out_features=256, bias=True)\n",
      "                  (2): Linear(in_features=256, out_features=256, bias=True)\n",
      "                  (3): Linear(in_features=256, out_features=256, bias=True)\n",
      "                )\n",
      "                (dropout): Dropout(p=0.1, inplace=False)\n",
      "              )\n",
      "              (feed_forward): PointerwiseFeedforward(\n",
      "                (w_1): Linear(in_features=256, out_features=2048, bias=True)\n",
      "                (w_2): Linear(in_features=2048, out_features=256, bias=True)\n",
      "                (dropout): Dropout(p=0.1, inplace=False)\n",
      "              )\n",
      "              (sublayer): ModuleList(\n",
      "                (0): SubLayerConnection(\n",
      "                  (norm): LayerNorm()\n",
      "                  (dropout): Dropout(p=0.1, inplace=False)\n",
      "                )\n",
      "                (1): SubLayerConnection(\n",
      "                  (norm): LayerNorm()\n",
      "                  (dropout): Dropout(p=0.1, inplace=False)\n",
      "                )\n",
      "                (2): SubLayerConnection(\n",
      "                  (norm): LayerNorm()\n",
      "                  (dropout): Dropout(p=0.1, inplace=False)\n",
      "                )\n",
      "                (3): SubLayerConnection(\n",
      "                  (norm): LayerNorm()\n",
      "                  (dropout): Dropout(p=0.1, inplace=False)\n",
      "                )\n",
      "              )\n",
      "            )\n",
      "            (2): EncoderLayer(\n",
      "              (src_attn): MultiHeadAttention(\n",
      "                (linears): ModuleList(\n",
      "                  (0): Linear(in_features=256, out_features=256, bias=True)\n",
      "                  (1): Linear(in_features=256, out_features=256, bias=True)\n",
      "                  (2): Linear(in_features=256, out_features=256, bias=True)\n",
      "                  (3): Linear(in_features=256, out_features=256, bias=True)\n",
      "                )\n",
      "                (dropout): Dropout(p=0.1, inplace=False)\n",
      "              )\n",
      "              (cross_attn): MultiHeadAttention(\n",
      "                (linears): ModuleList(\n",
      "                  (0): Linear(in_features=256, out_features=256, bias=True)\n",
      "                  (1): Linear(in_features=256, out_features=256, bias=True)\n",
      "                  (2): Linear(in_features=256, out_features=256, bias=True)\n",
      "                  (3): Linear(in_features=256, out_features=256, bias=True)\n",
      "                )\n",
      "                (dropout): Dropout(p=0.1, inplace=False)\n",
      "              )\n",
      "              (feed_forward): PointerwiseFeedforward(\n",
      "                (w_1): Linear(in_features=256, out_features=2048, bias=True)\n",
      "                (w_2): Linear(in_features=2048, out_features=256, bias=True)\n",
      "                (dropout): Dropout(p=0.1, inplace=False)\n",
      "              )\n",
      "              (sublayer): ModuleList(\n",
      "                (0): SubLayerConnection(\n",
      "                  (norm): LayerNorm()\n",
      "                  (dropout): Dropout(p=0.1, inplace=False)\n",
      "                )\n",
      "                (1): SubLayerConnection(\n",
      "                  (norm): LayerNorm()\n",
      "                  (dropout): Dropout(p=0.1, inplace=False)\n",
      "                )\n",
      "                (2): SubLayerConnection(\n",
      "                  (norm): LayerNorm()\n",
      "                  (dropout): Dropout(p=0.1, inplace=False)\n",
      "                )\n",
      "                (3): SubLayerConnection(\n",
      "                  (norm): LayerNorm()\n",
      "                  (dropout): Dropout(p=0.1, inplace=False)\n",
      "                )\n",
      "              )\n",
      "            )\n",
      "            (3): EncoderLayer(\n",
      "              (src_attn): MultiHeadAttention(\n",
      "                (linears): ModuleList(\n",
      "                  (0): Linear(in_features=256, out_features=256, bias=True)\n",
      "                  (1): Linear(in_features=256, out_features=256, bias=True)\n",
      "                  (2): Linear(in_features=256, out_features=256, bias=True)\n",
      "                  (3): Linear(in_features=256, out_features=256, bias=True)\n",
      "                )\n",
      "                (dropout): Dropout(p=0.1, inplace=False)\n",
      "              )\n",
      "              (cross_attn): MultiHeadAttention(\n",
      "                (linears): ModuleList(\n",
      "                  (0): Linear(in_features=256, out_features=256, bias=True)\n",
      "                  (1): Linear(in_features=256, out_features=256, bias=True)\n",
      "                  (2): Linear(in_features=256, out_features=256, bias=True)\n",
      "                  (3): Linear(in_features=256, out_features=256, bias=True)\n",
      "                )\n",
      "                (dropout): Dropout(p=0.1, inplace=False)\n",
      "              )\n",
      "              (feed_forward): PointerwiseFeedforward(\n",
      "                (w_1): Linear(in_features=256, out_features=2048, bias=True)\n",
      "                (w_2): Linear(in_features=2048, out_features=256, bias=True)\n",
      "                (dropout): Dropout(p=0.1, inplace=False)\n",
      "              )\n",
      "              (sublayer): ModuleList(\n",
      "                (0): SubLayerConnection(\n",
      "                  (norm): LayerNorm()\n",
      "                  (dropout): Dropout(p=0.1, inplace=False)\n",
      "                )\n",
      "                (1): SubLayerConnection(\n",
      "                  (norm): LayerNorm()\n",
      "                  (dropout): Dropout(p=0.1, inplace=False)\n",
      "                )\n",
      "                (2): SubLayerConnection(\n",
      "                  (norm): LayerNorm()\n",
      "                  (dropout): Dropout(p=0.1, inplace=False)\n",
      "                )\n",
      "                (3): SubLayerConnection(\n",
      "                  (norm): LayerNorm()\n",
      "                  (dropout): Dropout(p=0.1, inplace=False)\n",
      "                )\n",
      "              )\n",
      "            )\n",
      "            (4): EncoderLayer(\n",
      "              (src_attn): MultiHeadAttention(\n",
      "                (linears): ModuleList(\n",
      "                  (0): Linear(in_features=256, out_features=256, bias=True)\n",
      "                  (1): Linear(in_features=256, out_features=256, bias=True)\n",
      "                  (2): Linear(in_features=256, out_features=256, bias=True)\n",
      "                  (3): Linear(in_features=256, out_features=256, bias=True)\n",
      "                )\n",
      "                (dropout): Dropout(p=0.1, inplace=False)\n",
      "              )\n",
      "              (cross_attn): MultiHeadAttention(\n",
      "                (linears): ModuleList(\n",
      "                  (0): Linear(in_features=256, out_features=256, bias=True)\n",
      "                  (1): Linear(in_features=256, out_features=256, bias=True)\n",
      "                  (2): Linear(in_features=256, out_features=256, bias=True)\n",
      "                  (3): Linear(in_features=256, out_features=256, bias=True)\n",
      "                )\n",
      "                (dropout): Dropout(p=0.1, inplace=False)\n",
      "              )\n",
      "              (feed_forward): PointerwiseFeedforward(\n",
      "                (w_1): Linear(in_features=256, out_features=2048, bias=True)\n",
      "                (w_2): Linear(in_features=2048, out_features=256, bias=True)\n",
      "                (dropout): Dropout(p=0.1, inplace=False)\n",
      "              )\n",
      "              (sublayer): ModuleList(\n",
      "                (0): SubLayerConnection(\n",
      "                  (norm): LayerNorm()\n",
      "                  (dropout): Dropout(p=0.1, inplace=False)\n",
      "                )\n",
      "                (1): SubLayerConnection(\n",
      "                  (norm): LayerNorm()\n",
      "                  (dropout): Dropout(p=0.1, inplace=False)\n",
      "                )\n",
      "                (2): SubLayerConnection(\n",
      "                  (norm): LayerNorm()\n",
      "                  (dropout): Dropout(p=0.1, inplace=False)\n",
      "                )\n",
      "                (3): SubLayerConnection(\n",
      "                  (norm): LayerNorm()\n",
      "                  (dropout): Dropout(p=0.1, inplace=False)\n",
      "                )\n",
      "              )\n",
      "            )\n",
      "            (5): EncoderLayer(\n",
      "              (src_attn): MultiHeadAttention(\n",
      "                (linears): ModuleList(\n",
      "                  (0): Linear(in_features=256, out_features=256, bias=True)\n",
      "                  (1): Linear(in_features=256, out_features=256, bias=True)\n",
      "                  (2): Linear(in_features=256, out_features=256, bias=True)\n",
      "                  (3): Linear(in_features=256, out_features=256, bias=True)\n",
      "                )\n",
      "                (dropout): Dropout(p=0.1, inplace=False)\n",
      "              )\n",
      "              (cross_attn): MultiHeadAttention(\n",
      "                (linears): ModuleList(\n",
      "                  (0): Linear(in_features=256, out_features=256, bias=True)\n",
      "                  (1): Linear(in_features=256, out_features=256, bias=True)\n",
      "                  (2): Linear(in_features=256, out_features=256, bias=True)\n",
      "                  (3): Linear(in_features=256, out_features=256, bias=True)\n",
      "                )\n",
      "                (dropout): Dropout(p=0.1, inplace=False)\n",
      "              )\n",
      "              (feed_forward): PointerwiseFeedforward(\n",
      "                (w_1): Linear(in_features=256, out_features=2048, bias=True)\n",
      "                (w_2): Linear(in_features=2048, out_features=256, bias=True)\n",
      "                (dropout): Dropout(p=0.1, inplace=False)\n",
      "              )\n",
      "              (sublayer): ModuleList(\n",
      "                (0): SubLayerConnection(\n",
      "                  (norm): LayerNorm()\n",
      "                  (dropout): Dropout(p=0.1, inplace=False)\n",
      "                )\n",
      "                (1): SubLayerConnection(\n",
      "                  (norm): LayerNorm()\n",
      "                  (dropout): Dropout(p=0.1, inplace=False)\n",
      "                )\n",
      "                (2): SubLayerConnection(\n",
      "                  (norm): LayerNorm()\n",
      "                  (dropout): Dropout(p=0.1, inplace=False)\n",
      "                )\n",
      "                (3): SubLayerConnection(\n",
      "                  (norm): LayerNorm()\n",
      "                  (dropout): Dropout(p=0.1, inplace=False)\n",
      "                )\n",
      "              )\n",
      "            )\n",
      "          )\n",
      "          (norm): LayerNorm()\n",
      "        )\n",
      "        (fc_ws): Sequential(\n",
      "          (0): Linear(in_features=512, out_features=256, bias=True)\n",
      "          (1): ReLU()\n",
      "        )\n",
      "      )\n",
      "    )\n",
      "  )\n",
      ")\n"
     ]
    }
   ],
   "source": [
    "print(\"A summary of the model, where we can see the shape of each layer : \")\n",
    "print(model)"
   ]
  },
  {
   "cell_type": "code",
   "execution_count": 36,
   "metadata": {},
   "outputs": [],
…
